lightning_logs/version_4/checkpoints/epoch=4-step=160.ckpt (torch, 5628 bytes, 3 tensors)

encoder.weight f4 [1, 32]
00000000: 1087 41be d52c 2c3b ea6b 3ebe 8209 19bd
00000010: 402c a4bd 45f5 05bd c921 4bbe cd85 40be
00000020: fac2 11be 69bf 863d bc4e 883d 6ad7 ffbd
00000030: 3a5a 26be 3c1f 0f3d 6aef c5bd 6794 09be
00000040: 98e3 15bd 1361 1a3e 10fa 3c3c 459f 013e
00000050: 98b4 26be dee2 0dbe 0d81 84bc 3911 c23d
00000060: 2714 75bd 109e ec3d 6e05 2cbe 0108 1cbd
00000070: 54d8 803d 3bd5 f4bd 93db 963d 8563 50bd
-0.18899179 0.002627184 -0.18595853 -0.037362583 -0.080162525 -0.03270461 -0.19837107 -0.18801041
-0.14234534 0.06579477 0.066556424 -0.12492259 -0.16245356 0.034941897 -0.09664805 -0.13435517
-0.036594003 0.15076093 0.011534229 0.12658413 -0.16279829 -0.13856074 -0.016174817 0.09475941
-0.059833672 0.115535855 -0.16798946 -0.03809357 0.06291261 -0.11954733 0.07366099 -0.05087616

exp_avg f4 [1, 32]
00000000: c7ad 4444 fd9e 9042 780c 6c42 1561 0b41
00000010: fa8d 1341 19a1 8640 1782 d93f b78b f83e
00000020: 613c 443e 662a 0e3f 9894 b03d d602 053e
00000030: 428d ec3c 72a1 763d 40f8 713e 41cb 4237
00000040: feda 4c3e 6483 aa35 7833 4139 4d77 5b3d
00000050: 2db5 a537 748e 9239 48cc 4e3c d27b 1037
00000060: 8f6d 2835 4c50 b139 3ac9 f43a 177b d333
00000070: 9ecd b83d f9c9 923d 0000 0000 56ef c53e
786.7153 72.310524 59.012177 8.711202 9.222162 4.2071652 1.6992825 0.48544094
0.19163658 0.55533445 0.08622092 0.12989363 0.02887595 0.06021256 0.23629856 1.1610625e-05
0.20005414 1.2704227e-06 0.00018425088 0.05358057 1.97539e-05 0.00027953426 0.012621947 8.611898e-06
6.2744306e-07 0.00033819897 0.0018675693 9.847843e-08 0.09023593 0.071674295 0.0 0.3865916

exp_avg_sq f4 [1, 32]
00000000: ef21 cc47 6d2d 6844 547e 0b44 5571 6141
00000010: e549 7541 33da f740 e97d 913f b5d7 3c3e
00000020: 45a6 ea3d 7fa1 5d3e 52ca 643c 6dc9 8b3c
00000030: 1587 3d3b 48c3 0b3c 184d c33c 1e88 703a
00000040: 6113 143d e387 6b3a f575 6a3b 1f0c be3b
00000050: b2b9 eb3a 0862 343b 65cf 383b 659a 903b
00000060: eaa4 2c3b 8193 ee3a fba0 743b ddfc e23a
00000070: c530 f13b 98a3 013b 0000 0000 885f 613d
104515.87 928.7098 557.9739 14.090169 15.330541 7.7453856 1.136655 0.1844166
0.11457495 0.21643637 0.013964253 0.01706382 0.0028919626 0.008530445 0.023840472 0.00091755565
0.036151294 0.0008984787 0.0035775874 0.005799785 0.0017984419 0.0027524251 0.0028199789 0.0044129365
0.0026343414 0.0018201919 0.0037327397 0.0017317791 0.00736055 0.0019781347 0.0 0.055022746
